1_CNN_LSTM_XAI.pth (torch, 157821 bytes, 13 tensors)

conv1d.weight f4 [64, 1, 5]
00000000: aae4 a1be 7981 923c 550d a03e 2222 873e
00000010: 2927 c33e 7e01 82bd 4512 243e 6953 bcbd
00000020: 360c 9c3e d2d6 dcbe 2a02 83be 5d3d 04bd
00000030: 7e34 b4bc 5c09 203e 60b3 1cbf c2ae 6f3e
00000040: b85c 32be c6b0 7cbe e6fb 00bf dcc9 6bbe
00000050: 4625 5bbd 3753 543d 8606 f73e f904 76be
00000060: 0a63 e03d 911d 9f3e a5ba b5be 85c3 df3d
00000070: 3eca 02be 4fd8 873d 6e99 833d 4f1a 0fbe
00000080: be26 013f aeaf 8c3e cc43 143e d5cf 313c
00000090: df94 f8be 9764 e8be 35ef 913d b0eb 923c
000000a0: c377 01bf 3cf7 113e 5a35 5a3b f041 073b
000000b0: 4853 35bc 463e 163e 10f9 8dbe 5801 0c3e
000000c0: 1323 09bf 665b 20be 0756 51bc 9b6f f8be
000000d0: 0971 89bd 1ed1 873e 4dd8 0e3d 053a 1dbb
000000e0: 315f 263e e4c4 c1be 226e e7bd 791e 8c3c
000000f0: 8ff7 c6bd aa7a 993e ab66 be3e d7ad ae3d
00000100: 73ca cfbe c0de 82bf ec00 91bc 279e d83b
00000110: 1711 d5ba 33cb 83bb 4f42 c1bd 2b1a 07bf
00000120: 3efa bb3e 0cd3 823b db01 bf3d c756 fd3b
00000130: bfa1 83be 3c21 c03e 7d59 573e 4336 b3be
00000140: a8c4 cebe 9b03 17be 9914 843d d725 073e
00000150: 380b 703e 31c7 22be 41ea 20be 90dc c33e
00000160: a60d a4be a198 c7be 4d2d cdbe b540 fabe
00000170: 6f15 183d 0abb 9b3e 7cbd d5be 9380 26bf
00000180: 0c2c 5d3a a6e9 003d bf5c 293e 1f15 66be
00000190: 102f 013f 6082 873e 19bf 5fbd 1ac4 5dbe
000001a0: 086c f5bc ee73 9fbc 5b7e 1cbf 7b7b 3a3e
000001b0: f3d1 393e 6837 b4bb 54c4 af3d a6f2 a73d
000001c0: 1cd6 99be df72 50be b838 1fbe c75c 213f
000001d0: b16a d83d df02 aebe 3038 813d 0d95 05bd
000001e0: 5106 95bd a7ed 1e3e a467 603e dd4f 12bf
000001f0: 6d96 3a3e 6d33 8bbe cb0b a7be 42e3 f3be
00000200: c568 8fbd 5837 6c3e 826b 01be 3544 41be
00000210: 02ba 293e 4401 723d d94d 9a3e e01b 793e
00000220: c7f1 0e3f 5461 2f3d 43ae a83c c988 263c
00000230: 9799 0a3d 08af 32be d8f8 59be 979c bb3e
00000240: a038 f9be 8f91 cabe 2a1f cabe 364d c73c
00000250: 418e cdbd 36f5 3abd 5033 ddbe 3392 31bf
00000260: 63f6 f23d 0a56 f23d 6666 f33d bc9f 063f
00000270: 281c 6fbe 6f2b d2bd 9c3a bd3e 1f4a 033c
00000280: 666b 07be 1922 003f 23ff fa3d c1f7 8d3e
00000290: 8704 6abe 86f3 33bf 964e 503e 4065 60ba
000002a0: 1f4a 6c3b 7d4a 11bc 5bcd adbc 2389 ecbe
000002b0: 5940 9bbe b343 913e b58a 843e b290 ac3e
000002c0: 8080 883e f4a1 5a3e f48c 053e 0882 a53e
000002d0: 9e1d 5a3e e66a 753e c997 1b3e 8251 1d3e
000002e0: e2ca dcbd b4d9 803e ebfa 8fbd 3440 88bc
000002f0: 378d b8be db33 cdbc c8ad ea3e 3af3 c3bd
00000300: 30d8 bfbe f60d eebe ffac b23e fabb e13e
00000310: baef e0be 47d2 6e3c f598 05bc afdd 9a3c
00000320: d929 1bbb f120 00bd ec50 ecbe 7300 bd3e
00000330: 7cb7 293c 3a4d b5be 17d0 95bc e267 17be
00000340: c1cd ad3c 1104 febe 66ce e0be 9ff4 d1bd
00000350: 2919 bd3e 0faf 81be c90f 113e a81a f4bc
00000360: 2c1b 11bf 33f7 d0bc 7f59 623b 72c6 133e
00000370: e629 0bbf e60c a5be f14f 363d 8ee4 cd3c
00000380: 0a02 463e f0d6 a0bc afb6 83bd 4dd5 d43e
00000390: 8d6b 44be bcbf 63bc cfe2 07bf 0830 00bf
000003a0: 11f5 d53c 9168 5f3e 462e 68bc d9bf 0fbc
000003b0: b8a5 053f ba60 47be 0457 90bd 813e bb3e
000003c0: 1a4c 233f a008 4fbe 4fe8 613e 6e3c ab3c
000003d0: 427d 583c 21fb e4be 6e54 043f a902 0bbe
000003e0: 5356 98bc 3ecf 4cbc 7f0b ecbe 6cac f6be
000003f0: 6ccd 7f3d 022d de3d 7791 fd3d b874 a43e
-0.3161977 0.017884003 0.31260172 0.2639323 0.38115814 -0.06347941 0.16022594 -0.09195597
0.30478066 -0.43132645 -0.2558759 -0.032285083 -0.021997686 0.1562857 -0.61211205 0.23406509
-0.17418182 -0.24676809 -0.50384367 -0.23026222 -0.053502344 0.051837172 0.48247164 -0.24025334
0.1095639 0.31077245 -0.3549396 0.10925964 -0.12772462 0.066330545 0.06425749 -0.1397488
0.5044974 0.27477783 0.14478987 0.010852774 -0.4855108 -0.45389244 0.07125703 0.01793465
-0.50573367 0.14254469 0.003329596 0.0020638667 -0.011067219 0.14672193 -0.27729082 0.13672388
-0.53569144 -0.15659866 -0.012776858 -0.48522648 -0.06711013 0.2652673 0.03487425 -0.002399088
0.1624725 -0.37845528 -0.11300303 0.017104374 -0.09715187 0.29976398 0.37187704 0.08529251
-0.40584144 -1.0224228 -0.017700635 0.00661065 -0.0016255704 -0.004022026 -0.094364755 -0.52774304
0.36714357 0.003992444 0.09326526 0.007731292 -0.2570934 0.37525356 0.21030231 -0.35002336
-0.40384412 -0.14747469 0.06449241 0.13198029 0.2344178 -0.15896298 -0.15714361 0.38254213
-0.32041663 -0.38983634 -0.40073624 -0.48877493 0.037129816 0.30416137 -0.41746128 -0.6503994
0.00084370445 0.031472825 0.16539286 -0.22468995 0.50462437 0.26466656 -0.054625604 -0.21656838
-0.02995874 -0.01946446 -0.61130303 0.18211167 0.18146496 -0.005499769 0.085823685 0.082005784
-0.30046165 -0.2035632 -0.1554898 0.6303219 0.10567225 -0.33986565 0.06309545 -0.03261285
-0.072765954 0.15520345 0.21914536 -0.5715311 0.18221445 -0.27187672 -0.32626185 -0.4763432
-0.07002405 0.23067987 -0.12638667 -0.18873675 0.16574863 0.05908324 0.30137518 0.2432704
0.5583767 0.04281743 0.020590907 0.010164448 0.03383788 -0.17449582 -0.21286333 0.36642906
-0.48676014 -0.39564177 -0.394769 0.02432881 -0.100368984 -0.045644008 -0.4320321 -0.6936371
0.11863401 0.11832817 0.11884765 0.52587485 -0.23350585 -0.102621906 0.36958778 0.008013277
-0.13224563 0.5005203 0.12255695 0.27728084 -0.2285329 -0.7029346 0.20342478 -0.00085600093
0.0036054922 -0.008867857 -0.021216085 -0.46198377 -0.3032253 0.28371963 0.25887075 0.33704144
0.26660538 0.21350843 0.1304205 0.32325768 0.2130036 0.2396656 0.1519462 0.15363124
-0.10780884 0.25166094 -0.07030281 -0.016632177 -0.36045238 -0.02504914 0.4583571 -0.09567876
-0.37469625 -0.46495026 0.3489761 0.44088727 -0.43932897 0.014576501 -0.008154144 0.018904535
-0.0023676066 -0.031281415 -0.46155488 0.36914405 0.0103586875 -0.35410482 -0.018287702 -0.14785722
0.021216275 -0.49612477 -0.4390747 -0.10251736 0.36933258 -0.25328872 0.14166178 -0.029797867
-0.56682086 -0.025508499 0.0034538207 0.1443117 -0.54360807 -0.32236403 0.04450983 0.025133397
0.19336715 -0.01963374 -0.064313285 0.41568986 -0.19181652 -0.0139006935 -0.5308046 -0.5007329
0.026117833 0.21817233 -0.014171189 -0.008773767 0.5220599 -0.19470492 -0.07047847 0.36571124
0.63787997 -0.20218134 0.22061275 0.020902839 0.013213458 -0.44722846 0.5169133 -0.13575234
-0.01859585 -0.012500582 -0.4610252 -0.48178422 0.062451765 0.10848428 0.12381261 0.321203

conv1d.bias f4 [64]
00000000: b2c6 84be 2f60 c4bd cd0d 603e 40be 38be
00000010: 6480 6e3e 10ee 10bf 82fe bfbe a4b4 89be
00000020: d2e3 4d3e 7216 9d3e 614c 4b3e eb73 a53e
00000030: b283 8a3d e208 a5bc 0b8b a83e 0f31 e23d
00000040: 06d1 2e3e 1e2b b9bd 03c9 173e 11f1 e2bc
00000050: f7f8 af3e a287 3e3e 0ac5 a43e 96df 63be
00000060: 64d5 6dbe 61ef bbbe cfb8 713d 779d 2e3e
00000070: b9c1 c73d 23b6 76bd 3e82 99be a0a5 613e
00000080: 903c 80be 9a33 963e 1ffe d7be 2238 893e
00000090: fdd7 e4bd 3f63 01bf 4bc0 f0be f522 55bc
000000a0: c23d 93be 780b 1ebe 2bcd cabe f48b 67be
000000b0: 4ce3 2b3e 4ebc 103e 33cb 36bd 7426 873e
000000c0: ab1b 8e3e 0fea 2ebd 2cd1 98bd 436b 93be
000000d0: 059d d03d 24f3 a1be 47dc 883e 45b5 81be
000000e0: c40e 41be 030d 353e cba9 5a3d 4783 17be
000000f0: d18a 08bc 24a4 da3e 9031 eebe 88ca cc3e
-0.25932842 -0.09588658 0.21880265 -0.18041325 0.23291165 -0.56613255 -0.37498862 -0.2689563
0.20106438 0.30681187 0.19853355 0.32315 0.067634 -0.020145837 0.3291858 0.110445134
0.17071924 -0.09041427 0.14822774 -0.02770284 0.34369633 0.18606427 0.3218158 -0.2225326
-0.23225933 -0.3670607 0.059014138 0.17052256 0.097537465 -0.060232293 -0.2998218 0.22035837
-0.25046206 0.29336244 -0.42186067 0.26800638 -0.11174009 -0.5054206 -0.47021708 -0.013008823
-0.28758055 -0.15434062 -0.39609656 -0.22611982 0.16785926 0.14134333 -0.04462738 0.26396525
0.27755484 -0.042703684 -0.07461771 -0.28792772 0.10186199 -0.31630814 0.26730558 -0.2533361
-0.18853289 0.17680745 0.053384583 -0.14796172 -0.008333878 0.42703354 -0.46522188 0.3999827

batchnorm.weight f4 [64]
00000000: bc02 673f 0678 763f 8962 7b3f 6040 853f
00000010: 5100 633f b7b6 6b3f e383 733f b488 833f
00000020: 6d9c b43f e841 763f 77e7 7a3f 5676 833f
00000030: b965 7e3f b8c8 d73f 8eb2 6c3f b6a1 6b3f
00000040: 800d 7a3f 44c7 743f 340d 663f c952 6f3f
00000050: 50b4 803f b4b6 823f 07d4 7c3f deb1 813f
00000060: 4cea 713f 5a48 853f 06e4 643f 1a91 833f
00000070: dfd2 743f ff2b 8c3f fe90 833f 62ac 813f
00000080: c0b2 703f c01b d03f 9ea5 673f 9431 5b3f
00000090: 67cd 623f 98e9 863f 946a 753f c5f1 873f
000000a0: f8b3 823f 1993 743f 8323 6a3f e3a1 7a3f
000000b0: 7990 813f b3e7 7a3f 82dc 823f e254 753f
000000c0: 99ac 7b3f 83b0 9a3f 3f6e 853f c231 723f
000000d0: e0b8 8e3f 7b6a 8e3f 0fdd 7c3f 7857 763f
000000e0: c998 8e3f 21b5 6b3f 9fc8 b83f bb3c 793f
000000f0: b201 7f3f 8605 863f ee9e 643f 33e9 823f
0.9023855 0.9627689 0.9819723 1.0410271 0.8867236 0.92075676 0.9512312 1.0276093
1.4110237 0.96194315 0.9800944 1.0270488 0.99373966 1.685813 0.9245995 0.92043626
0.9767685 0.95616555 0.89863896 0.93485695 1.0055027 1.0212007 0.9876103 1.0132406
0.94498134 1.0412705 0.89410436 1.0278656 0.95634264 1.0950927 1.0278623 1.0130732
0.9402275 1.6258469 0.90487087 0.85622525 0.8859467 1.0540037 0.9586575 1.0620657
1.0211172 0.95536953 0.91460437 0.9790327 1.0122215 0.98009795 1.0223544 0.95832646
0.9831024 1.2085117 1.042427 0.94607174 1.1150169 1.1126245 0.9877481 0.96227217
1.1140376 0.92073256 1.4436225 0.9735829 0.9961196 1.0470436 0.8930501 1.0227417

batchnorm.bias f4 [64]
00000000: acd8 18be bab5 8bbc 580f 3ebe 1dd2 103d
00000010: bb4d c7bd 3999 f1bc 05de c03d aacf c33b
00000020: c96b 96bd 1cf5 14bd f2d7 24bd 1aa3 26bd
00000030: e822 e0bd f31a febd 62c6 b7bd 893e ecbd
00000040: abe4 99bd 2ea4 cabd 1171 a6bc 86a9 2fbe
00000050: 462d b23c ee3c b4bc 5a9e 72bc 96f7 dfbd
00000060: fbee faba fa67 73bd 0508 c6bd 83fb 883d
00000070: 77c6 f5bd b21b 18be 654d 3cbd 362b 13be
00000080: 0ff3 b7bd 5d6c bcbd 0678 dfbd 9960 59be
00000090: 328c 19be d3b2 18bd 0063 02be 04b5 143d
000000a0: edd2 efbc f539 a9bd 4985 9cbd 831d 45be
000000b0: 84ed 27bd cdac 44bd 70b0 ebbb 9a0e b4bd
000000c0: a494 24bd 8c82 1fbd 1f03 713c f813 c43b
000000d0: c507 79bd 7f84 e5bd cc7e 20bc 3800 e4bd
000000e0: facc 16bd 9291 2fbe 18e5 3ebd 3068 ddbd
000000f0: 6721 b9bd 1e92 27be adbb 053d 1443 52bd
-0.14926404 -0.017054427 -0.1856054 0.03535663 -0.09731623 -0.029492008 0.09417347 0.005975683
-0.07344777 -0.036366567 -0.040245004 -0.04068289 -0.10944158 -0.12407484 -0.089733854 -0.11535365
-0.07514318 -0.09894596 -0.020317586 -0.17154512 0.021750104 -0.02200171 -0.014808262 -0.10935895
-0.0019144708 -0.05942533 -0.09669498 0.06688597 -0.12000745 -0.14854315 -0.045972247 -0.14371952
-0.089819066 -0.09200356 -0.109115645 -0.21228255 -0.14994887 -0.037279915 -0.12733078 0.036305442
-0.029275382 -0.082630076 -0.076426096 -0.19249539 -0.040997997 -0.04801636 -0.007192664 -0.087918475
-0.040180817 -0.03894286 0.014710217 0.005983826 -0.060798425 -0.11206912 -0.009795856 -0.11132854
-0.036816575 -0.17145374 -0.0466052 -0.10810888 -0.09039574 -0.16364333 0.032649685 -0.051333502

batchnorm.running_mean f4 [64]
00000000: 06ac 82be 64f1 c5bd 9743 5b3e 54a7 3ebe
00000010: b3ac 703e 10f2 10bf 1f57 bdbe 1848 8cbe
00000020: 0a62 4b3e 4def 9a3e 869a 493e 418e a43e
00000030: daab 8d3d cf5f ddbc cd08 a83e ea07 e23d
00000040: 4440 2e3e 0c6f c1bd f098 113e dd84 02bd
00000050: 4c79 b13e f8b9 3c3e a931 a33e b3f6 60be
00000060: be52 6ebe aac3 bebe 3074 773d 0c02 343e
00000070: ddd6 c13d 69a0 86bd e1f7 9bbe ff2d 653e
00000080: c104 7dbe cd4f 943e a9cc d8be b72d 8d3e
00000090: fab4 dcbd a5d1 01bf b719 f1be 3416 51bc
000000a0: aabc 93be 2e74 24be 9da0 cbbe 2c99 6abe
000000b0: 640e 283e 8dae 113e 6057 4bbd 2513 893e
000000c0: b13d 903e 29d7 30bd e81c a1bd 58c7 93be
000000d0: 6d7d d03d c559 a4be 6d98 873e da86 80be
000000e0: 3c8a 42be 5f0f 313e a15d 413d 7446 1cbe
000000f0: 9514 3ebc cf48 da3e b6dc f1be b046 d03e
-0.25521868 -0.09665182 0.21412502 -0.18618518 0.2350338 -0.5661936 -0.3698053 -0.27398753
0.19861618 0.30260697 0.19687852 0.3213978 0.06917544 -0.027023224 0.32819214 0.11036666
0.17016703 -0.09445009 0.14218497 -0.03186499 0.34662855 0.18430316 0.31873825 -0.21969108
-0.23273751 -0.37258655 0.06041354 0.17578906 0.0946481 -0.065735646 -0.30462554 0.22380827
-0.24708845 0.28967133 -0.42343643 0.2757394 -0.10776706 -0.5071052 -0.4708993 -0.012761641
-0.28854877 -0.16059944 -0.39770976 -0.22909993 0.1641174 0.14226742 -0.049643874 0.2677242
0.28172067 -0.043173943 -0.078668416 -0.28863025 0.10180173 -0.3209974 0.2648348 -0.25102884
-0.18998045 0.1729102 0.047208432 -0.1526125 -0.011601587 0.42633674 -0.47238702 0.4067893

batchnorm.running_var f4 [64]
00000000: a043 cb3e 2d6d 983e 3bdc e53e 6152 e33e
00000010: 58ab 943e 2ce7 743e 59fd bb3e 137a de3e
00000020: 44e6 853e c43d d33e e1cd 953e df2a 313e
00000030: 52fc c43e a75e 803f 03c3 ce3e 6256 b23e
00000040: 6a35 7b3e e7e7 db3e b1de 243f 8dd6 f53e
00000050: 37ae b63e ee6a d33e c3aa 283e 6aeb fe3e
00000060: 3c13 d13e 1eb0 e93e ffad 273e 07e6 bb3e
00000070: 3fed d83e a14e a53e 5d60 2d3f 70dc e73e
00000080: 3356 c93e d996 013f 64a9 d93e 2c9e bb3e
00000090: 28bd 243e c73b 403e 0113 273f 6bb6 b93e
000000a0: c3d0 a73e 5995 c83e a732 cb3e 5e39 a73e
000000b0: 6d90 d73e 9f57 4d3e 7a17 0f3f 13ed da3e
000000c0: 5deb f33e c8c6 e83e a7f0 e83e 74f3 293f
000000d0: 61c7 e93e f451 023f 5808 5a3e 705e 043f
000000e0: f131 a63e c858 b43e e1ac 683f 11e8 ff3e
000000f0: 5c97 fd3e 6368 ad3e 86d8 103f a089 0e3f
0.3970003 0.29770795 0.44894585 0.44398788 0.29036975 0.2391631 0.36716726 0.4345251
0.2615224 0.4125806 0.29258636 0.1730151 0.38473755 1.0028886 0.40383157 0.3483153
0.24532095 0.42950365 0.644023 0.48015252 0.3567979 0.41292518 0.1647139 0.49788982
0.40834987 0.4564218 0.16374968 0.36698934 0.42368504 0.32286552 0.67725164 0.45285368
0.39323577 0.506208 0.42512047 0.36644113 0.16087782 0.18772803 0.6526337 0.36271986
0.3277646 0.39176443 0.39687082 0.32660955 0.42102376 0.20052956 0.558952 0.42758998
0.47640505 0.45464158 0.45496103 0.66387105 0.45659927 0.509063 0.21292245 0.517066
0.32459977 0.35223985 0.9088879 0.4998174 0.4952954 0.33868703 0.5658039 0.5567875

lstm.weight_ih_l0 f4 [256, 64]
00000000: e792 8a3d e2b3 023e 3b69 8d3e 0f7e 903d
00000010: 265d 763c 01fd 1cbe 64ad 233b 5ffb 43be
00000020: 9218 61be 20f0 d8bd 8562 18be 56a5 ae3b
00000030: 63ad 15bd 70cc 3c3d fb88 4fbe fc17 d5bc
00000040: 642e fb3d b18e a73d fa62 603c d62e 153c
00000050: 2e8e 383d 16fc a4be a9b7 783e c32a 8ebd
00000060: d270 473e f09e d7bb fb3a da3d e85d 1e3d
00000070: f1d6 833e 2b79 e1bd 6ad0 ef3b ca77 18be
00000080: 67c5 9fbd 3cd1 37be c575 233e 5b57 913c
00000090: e404 903d 3c9f 0e3e 41ed 64bd 674c d4bd
000000a0: f751 953c c7d3 053e aa3d 5fbd ed62 8bbe
000000b0: d6ef 20be fbc0 573d 90be 1abe decf b73c
000000c0: 8ee7 34be 9144 0abe 1bf5 32be eae4 ff3d
000000d0: ff5a 0cbe 7dc8 0c3e 2023 cb3d 7c0e 4dbe
000000e0: 292b e23d 3839 2a3e 50b1 19be 653f 453c
000000f0: cbdc 6fbe 64c7 c0bc 2c92 b6bd b542 63be
00000100: 83c3 803d 2132 6e3c a7ce 0bbe 045e b7bd
00000110: c6f0 b03e 5328 593d 2ea8 1e3e a10c d53d
00000120: 507b 093e 0aa4 82bd 7696 0d3c 9b38 e6bc
00000130: 490a 003e 36c0 953c 636c 173e 648f 173e
00000140: 35ba 3dbd 09c1 2f3e 23d5 ecbd cab4 0abe
00000150: 49c1 1b3e a6d7 d83d 96d9 cfbd 7e19 3ebc
00000160: 7c3f 833e 0fc1 713d 4289 ab3c 51a3 353e
00000170: 453a 58bb 71bc 6ebc 1428 023d c7d4 db3c
00000180: 8d83 e83d a70c d63d df23 703e 2d74 edbc
00000190: 1c5f 85bd 6417 8d3d 0774 10be 5d56 29bd
000001a0: ab61 8f3d 552b ac3d 7f8c 173e 758f b13d
000001b0: 0462 b6bd 9a25 573e 71bd 40bd 15d8 5d3c
000001c0: b9c4 183d df38 543d d18b a03a 138a 1bbc
000001d0: 94a8 873d 15c7 d2bc 850d 4a3e 6350 adbd
000001e0: 2005 debd f585 90bc 68b9 fcbd fb5f acbc
000001f0: 9439 e23d ec24 363d 5dff 10be 958b 653d
00000200: 46ed 3d3d f42e 333d c504 36bd 269d 23be
00000210: 8d0a fe3d 2334 94bd f84d e13e a519 d7bd
00000220: d08e c4bc e5d1 cabd 4f58 4b3e 3a7b b1bd
00000230: d006 8a3d 7343 663e 116c 233e 89bf 6c3e
00000240: d841 293e 474c 443e 08e8 883e 7ee3 b33d
00000250: 0267 b63c b158 ab3e ee89 f3bd 0711 ff3c
00000260: d822 2c3e 1c4e 3b3d b13a dd3a f45a 893b
00000270: 5934 5ebd 0967 093e c269 aa3e 687b 5fbd
00000280: 04ad d33d df27 b33d 33a9 a73d 117b 643c
00000290: f5de c83d e8d5 14be 9e68 043d 0e02 9f3d
000002a0: dd0f 183e 846e 1abd 9cae 6b3e a572 7abd
000002b0: c260 893e 84c7 323d 9aae f83e 9d81 d8bb
000002c0: e95b 99bd ce0f 563c 8cdd c03e 896c cbbd
000002d0: 14d6 f8bd 697f 103d 2eae 863c 7b38 d6bc
000002e0: 37af b43c e48f 25bd 05bf ca3e eaa3 9c3e
000002f0: f090 213e b69e adbd 7203 40bd f805 323e
00000300: 2bda babd aff3 dd3d 61c0 403e 0f8a bc3d
00000310: e900 e9bd 5c9f f4bd 251f f8bb f21e 1f3e
00000320: 9fe3 66bd 2afa 9ebc 4098 a03d b46d 0a3e
00000330: 603f 7a3e 47cb 9cbe 9cc4 88bd b31f 8abc
00000340: a13d 87bd b310 c63c ca67 d0bd b343 1cbd
00000350: 88ca 123d b49b a8bd b674 513e c192 923d
00000360: 6ba9 fa3d 66e6 d83d ace3 bebd f4b1 013e
00000370: a98e 583e 8a69 57be b313 3fbe de48 a53b
00000380: 96da 803d 2f1c ea3c 8009 583d 4a5b a73d
00000390: 7b88 2f3e 1f19 d93d 4944 d93d 6e15 b7bd
000003a0: d7d3 0e3e 1357 483d 4f23 01be a396 dfbd
000003b0: b7b8 11be adbb 12be 7382 a3bd 76d7 573e
000003c0: 1d9b 59bc 350b 31be 4dbd 85bd c719 593d
000003d0: 19d4 e4bd 0f6e 01be 5eda f53d 0929 85bd
000003e0: 13b0 293d 7317 f3bd d56b 98bd 31f2 4bbd
000003f0: 1f46 03be a57f 343e 56fd 84bd d819 0fbe
0.06766301 0.12763932 0.27619347 0.07055294 0.015036857 -0.15330888 0.0024975175 -0.19138859
-0.21982029 -0.10592675 -0.14881332 0.005329768 -0.036542308 0.046093404 -0.20267098 -0.026012413
0.12264708 0.08181513 0.013695473 0.009105405 0.045057468 -0.32223576 0.24288811 -0.0694175
0.19476631 -0.006580226 0.10655781 0.038663775 0.25749925 -0.11009439 0.007318546 -0.14889446
-0.078013234 -0.1795091 0.15962894 0.01774185 0.07032183 0.1392793 -0.055890325 -0.10366135
0.01822756 0.13069068 -0.054502167 -0.27223912 -0.1571649 0.052674275 -0.15111756 0.022437986
-0.17666456 -0.13502719 -0.17476313 0.12494834 -0.13706587 0.13748355 0.09918809 -0.20025057
0.110433884 0.1662339 -0.15009046 0.01203904 -0.2342407 -0.023532577 -0.08914599 -0.22193415
0.06287291 0.014538319 -0.1365305 -0.08953479 0.34558696 0.05301697 0.15493843 0.104027994
0.13425946 -0.06378944 0.00864183 -0.028103163 0.12503923 0.01828013 0.1478744 0.14800793
-0.04632016 0.17163481 -0.1156409 -0.13545528 0.15210451 0.10588007 -0.10148923 -0.0116027575
0.25634372 0.059022006 0.020939473 0.17738082 -0.0032993716 -0.014571295 0.031776503 0.026834859
0.11353216 0.10451632 0.23451184 -0.028986061 -0.06512281 0.06889227 -0.14106761 -0.041342128
0.070010506 0.084067024 0.14799689 0.086699404 -0.08905414 0.21010438 -0.047055665 0.0135402875
0.037296984 0.05181205 0.00122487 -0.009493369 0.066239506 -0.025729695 0.1973172 -0.08462598
-0.10840821 -0.017642 -0.12340051 -0.02104186 0.110461384 0.044468805 -0.14159913 0.05604132
0.04636886 0.04374595 -0.044438142 -0.15977916 0.12404356 -0.07236507 0.44004798 -0.10502938
-0.02399388 -0.099033155 0.19857906 -0.08666082 0.06739581 0.22486667 0.15959193 0.2311994
0.16529024 0.19169722 0.26739526 0.08783625 0.022265915 0.33466104 -0.118915424 0.031136049
0.16810167 0.045728788 0.0016878453 0.0041917507 -0.05424914 0.13418211 0.33283812 -0.05456105
0.103357345 0.08747839 0.08186569 0.013945357 0.09808151 -0.14534724 0.032326333 0.07764064
0.14849801 -0.037703052 0.23015827 -0.06114449 0.26831633 0.043647304 0.4857071 -0.006607248
-0.074882336 0.013065292 0.37669027 -0.09932811 -0.12150207 0.035277758 0.016440477 -0.026149979
0.022056205 -0.040420428 0.3959886 0.30593807 0.15777946 -0.08477537 -0.046878286 0.1738509
-0.091236435 0.108374946 0.18823387 0.0920602 -0.11377127 -0.11944458 -0.007572072 0.15539148
-0.05636942 -0.019406397 0.078415394 0.13518411 0.24438238 -0.30623838 -0.06678125 -0.016860818
-0.06603552 0.024177885 -0.10176046 -0.0381505 0.03583768 -0.08232823 0.20454678 0.07156897
0.12239345 0.1059082 -0.09320769 0.1266554 0.2114817 -0.21036354 -0.18659858 0.005044087
0.06291692 0.028577892 0.052743435 0.08171709 0.17141907 0.106004946 0.106087275 -0.08939634
0.13947998 0.048911165 -0.12611125 -0.109174035 -0.1423062 -0.14329405 -0.079838656 0.21078286
-0.013281611 -0.17289431 -0.06530247 0.0530031 -0.11173267 -0.1263964 0.12004541 -0.065019675
0.041427683 -0.11869707 -0.07442442 -0.04979152 -0.12819718 0.17626818 -0.064936325 -0.13974702

lstm.weight_hh_l0 f4 [256, 64]
00000000: 5181 c93d 4464 82bc d7f7 1dbd da0f 083e
00000010: 2728 d03d 3f42 0fbd e508 773e b73f 29be
00000020: e9c9 f2bd 0240 353e 3009 753e cb7b a8bd
00000030: 0191 c6bc 0007 f73c 5d51 dcbe d5d5 9dbd
00000040: 3d9a 23bb b3ed f5bd 3513 cc3e eca6 75be
00000050: 04d3 693d aa63 b03d 07f2 66be c59e 153d
00000060: c507 a43e 6435 323e 1ebd b4bd a7d7 e4bd
00000070: 4dd6 6e3b a4a9 2fbe 8404 353d d10b d7bd
00000080: cff8 5b3d 7e43 42bd 5720 17be b8d7 b4bd
00000090: db73 8fbd a311 813c 3213 873d d3ca 343e
000000a0: 90e8 61be c5db 9bbe 629d 283d 7aed 823d
000000b0: 6a12 3ebd 3e63 b2bb 59ac 28be 4a4d 333d
000000c0: 5303 5f3d 082a ebbd dbaf b23d 8da4 1c3c
000000d0: bac0 a4be 6fa3 c13d 03cc 0c3d 11f1 163d
000000e0: 3891 e1bd 8289 303e 9021 ca3d 1718 5abd
000000f0: 3413 a53d 60e9 93bc 48ca 483e f5f9 bfbd
00000100: 6363 4e3e 4276 a93d be0e e63d 76d5 e63d
00000110: ed73 f2bb 4386 b1bd 6fcb 883d edbd 05bb
00000120: 9e1b 6d3e 8f61 1e3d 74e6 bf3d 4f57 cf3c
00000130: 9f1c 323e 97b1 b93d 29e2 83be b27a 4e3b
00000140: 484d a6bd 3314 0c3b 60cd 6f3e fcad 313e
00000150: ff3f c03d dd04 0c3d 830a 21be d607 8fbe
00000160: 8f0d 013d 1e16 30bd ed32 0fbe 5f6e f03d
00000170: ac49 8abc 7921 eb3d 9ad7 d03d db46 81bc
00000180: 57df 8bbe 00b6 e83d 6fa6 753d 750f 373e
00000190: 411f 883e bd3e 30bd c9fe 943d 7fd6 7b3d
000001a0: c920 3abd 7010 cabd acc0 ae3d beb6 0ebe
000001b0: b63e 08be 50d6 bc3d cf75 1abe b2dd 0abd
000001c0: 5275 2fbe e6ff 3cbe 0b10 e4bd 0e2e aa3d
000001d0: f275 693e fd42 5c3d 1a43 5dbc 60fb cdbc
000001e0: e0aa 3cbe edd1 a4bd 95ef f63d 5d89 ea3d
000001f0: bbc9 f43d 5bec f93c 2dd5 b83c 7dae 61bd
00000200: d040 01be 1cbe 8bbd 2276 babd 4a6a 833e
00000210: 5664 83bd e03b 40bd 20b9 af3e a567 0b3e
00000220: ec37 b33d 1731 5f3e 9a3d dbbb b178 1dbe
00000230: 5a29 65be 2ec0 243e e530 38be dbac d23d
00000240: eec1 70be 8555 943e 4a2a 933e c6c8 38be
00000250: b781 ca3d 1959 eb3d 2988 6a3b aaf8 543c
00000260: 3389 203e ecb4 a73c a00c 03bd 955d d5bd
00000270: 6056 c5bb 2916 3a3e 7a77 2ebe d8cc 2b3e
00000280: 3388 0c3e 9bf7 e9bc 5166 19be 3d40 d3be
00000290: 2891 043e 83f0 023e c697 613d d06a 9d3d
000002a0: f0ac 63be 4c27 a2bd 0654 f4bd 63e6 c4bd
000002b0: cd13 3ebd 86f4 a5be 160e 913d 73cf 96bd
000002c0: 4748 b2bd 38d3 98bb 4e07 e8bd e0ae 4a3c
000002d0: 580b 63be cf4c b13d e445 483e 4066 333e
000002e0: 457e 16be d884 00bd e21b 023e 57ba a8bd
000002f0: b9bc 13be 9f84 49bd 185a 8c3d 2156 1abe
00000300: 0b76 d63d 1964 a13e 56fa ebbd 27e7 75bd
00000310: 4007 9d3c d97c 7dbe 6c6b e4bd 8eaa 1cbe
00000320: bf46 cfbd fc9b 503e a846 683e 76e6 45be
00000330: eb6d b7bd 7b85 07bc 0a55 0cbe 92b4 28bd
00000340: f35a 3b3e d425 2bbe 1cdf e93a 7e6a 2b3e
00000350: 311a aebe 6b76 f23d 85e2 4f3d f15e c1bb
00000360: ea07 f7bd d8fb ea3d 836c b5be bdcc 53bd
00000370: 6142 8abc f071 dcbd de01 15be 8d2f ffbd
00000380: 224c bebd 50ca 46be 6857 973d e29b 9a3e
00000390: e578 863d ac26 6abe d97f 033e 218c 833b
000003a0: 56ee 753e b31f 2cbe d35c 45be d104 f1bc
000003b0: 378e 133d e0b4 123d 1eb8 2cbd 43d4 9ebc
000003c0: b1e1 1abb 2aa3 fdbd 81f7 0d3e b1f0 79be
000003d0: f7e7 583e 018a cb3d 39c8 27ba 0a20 e33d
000003e0: 117f 73be 0888 b93d f24f 2d3e 2ee9 a9bd
000003f0: b575 cfbd fcbc 15be 0f6e ba3d 0c23 733c
0.09839118 -0.015916951 -0.038566437 0.13287297 0.101639085 -0.034975287 0.24124487 -0.16528212
-0.118549176 0.17700198 0.23929286 -0.08226737 -0.024239065 0.030154705 -0.43030825 -0.07706801
-0.002496376 -0.12008228 0.39858404 -0.23989457 0.057086006 0.086127594 -0.22553264 0.036528368
0.32037178 0.1740318 -0.08825134 -0.11173945 0.0036443651 -0.17154557 0.04419376 -0.10500301
0.05370408 -0.047427647 -0.1475843 -0.088302076 -0.070045196 0.01575548 0.06595458 0.17655496
-0.22061372 -0.30441108 0.041165717 0.06392951 -0.04640428 -0.0054439595 -0.16471995 0.04377488
0.05444653 -0.11482626 0.08724948 0.009560716 -0.3217829 0.094550006 0.03437425 0.036850993
-0.110140264 0.17239955 0.09869683 -0.05324563 0.08060303 -0.018055618 0.19608414 -0.093738474
0.201551 0.08274509 0.112332806 0.11271183 -0.0073990733 -0.086681865 0.06679427 -0.0020407394
0.23155066 0.038667258 0.09370127 0.025310187 0.1739373 0.09067076 -0.25758484 0.0031506238
-0.08120209 0.0021374344 0.23418188 0.17351526 0.09387206 0.034184325 -0.15726666 -0.27935666
0.03150707 -0.042989843 -0.1398427 0.117398016 -0.016880833 0.11480994 0.10197373 -0.015780857
-0.27318832 0.11362839 0.059973177 0.1787699 0.26586345 -0.043028582 0.07275159 0.061483856
-0.045441423 -0.098664165 0.08532843 -0.13936898 -0.13305172 0.09220564 -0.15084003 -0.03390283
-0.17134598 -0.18456993 -0.111358725 0.083095655 0.22798899 0.053774823 -0.013504768 -0.025144279
-0.18424559 -0.08047853 0.120574154 0.11451981 0.119525395 0.03050821 0.022562588 -0.055098046
-0.1262238 -0.0682337 -0.09104563 0.2566703 -0.06415622 -0.0469321 0.34320927 0.13613756
0.087509006 0.2179607 -0.006690693 -0.15378071 -0.22379056 0.16088936 -0.17987402 0.10286876
-0.23511478 0.28971496 0.28743201 -0.18045339 0.098880224 0.114916034 0.0035786724 0.012998739
0.15677337 0.020472012 -0.031994462 -0.1041824 -0.0060222596 0.18172516 -0.17037764 0.1677736
0.13723831 -0.02856045 -0.14980437 -0.41259947 0.12945998 0.1278706 0.055076383 0.076863885
-0.22233939 -0.079176515 -0.11930089 -0.09614255 -0.046405602 -0.3241312 0.07082765 -0.073637865
-0.08705192 -0.004663851 -0.11329518 0.012370795 -0.22172296 0.08657228 0.19557911 0.17519474
-0.14696606 -0.03137669 0.12705949 -0.082386665 -0.1442746 -0.049198743 0.068531215 -0.15071918
0.10471734 0.3152168 -0.11522357 -0.060034897 0.019168496 -0.24754657 -0.111533016 -0.15299436
-0.101209156 0.20372003 0.22683203 -0.19326195 -0.08956512 -0.00827157 -0.13704315 -0.04118783
0.18296413 -0.16713649 0.0017842981 0.16739842 -0.34004357 0.11838993 0.050753135 -0.0059012105
-0.12062056 0.11473817 -0.3543435 -0.051708926 -0.016877355 -0.10763919 -0.14551494 -0.124602415
-0.09291865 -0.19413114 0.07389718 0.30197054 0.065660276 -0.22866315 0.12841739 0.0040145074
0.24016699 -0.16808967 -0.19273691 -0.029421242 0.0360243 0.035817027 -0.042167775 -0.019388324
-0.0023633058 -0.12384637 0.13863946 -0.24408223 0.21182238 0.099384315 -0.000640038 0.11090095
-0.2377894 0.09059149 0.16925028 -0.082964286 -0.10129873 -0.14622873 0.09103023 0.014839899

lstm.bias_ih_l0 f4 [256]
00000000: 5e6d 4a3d f663 c5bd fb1a e3bc f2b3 573e
00000010: 58f3 cd3d 47e9 b83c cd59 bd3d 589b 2a3d
00000020: a598 cd3c 7a40 213e 47e9 8c3d 0cf2 b7ba
00000030: 8de9 9e3d bcd2 3a3e 21b1 be3d 3c62 453d
00000040: 3c3b 513d a14b 843c e9c1 f7bc 7ba2 d33e
00000050: 0db8 9e3c 26dd 133e b155 513d a62c 403e
00000060: 0c58 67bd 980a ef3d 05a0 81bc c405 a0bd
00000070: bb01 1d3e 8e8e 403e 3ed2 0c3e fee3 88bb
00000080: 4afd a3bd 72c7 bc3b 8784 883d 2e7b dcbd
00000090: 59a4 97bd ff1e e8bd f9bc 123e c113 113e
000000a0: 4a41 0a3e 7495 16bd 1cb4 023d a1d7 6a3e
000000b0: 971a f9ba e61b b73e f210 2abc d245 c13a
000000c0: 0f3b 5fbc f4eb c53c bfc6 1e3e a8d5 c93d
000000d0: bca5 6a3e 183d 9bbc 57a5 d73d 7433 ff3d
000000e0: 623b 183e aab3 6fbd cdb7 363e cb73 bdbd
000000f0: 9abd 823e c201 0fbe cd40 e13d 7fdf bc3d
00000100: 3ffb 303d 8081 c43d 6924 bb3d 5151 e5bd
00000110: eb92 74bc 8cca bb3d e359 03bc 78af 463e
00000120: c36c 11be 69bf c1bd ba95 923c 39e0 063e
00000130: cc4e 4bbe 8be5 89bd 48c1 e9bd 0d52 06bd
00000140: d5fd f8bd 49fe fc38 9c46 343c b156 2dbd
00000150: f829 77bd b939 debd eeef 003e 7834 09be
00000160: ad3a 26be 1331 283e a1df bdbd d399 a6ba
00000170: f032 a6bd c916 d63d 47f6 c3bd 87fc 443e
00000180: c632 453e 5509 c6bd 680d 5bb9 cfb4 84bd
00000190: 9a96 a03d 7876 08be 8e5a 033b 06e6 833d
000001a0: b8a1 acbd 0ef1 253e 2e8c dc3d ae1c 1b3e
000001b0: 82a3 25bd 6c5d 26bd d7b7 8a3d c5bf 12bd
000001c0: cd3e e23c bbd5 acbd 60c9 43bd a376 b6bd
000001d0: 5895 153d 58d6 263e 03f1 33be 4cca f43d
000001e0: 992e 4d3d 5175 23bd 80d1 eabd e36c febc
000001f0: 8de7 8cbd ceb2 fdbd d468 09be 491e fcbd
00000200: ce23 d9bd 00fa 3c3e 6805 a0bd 3ebc 27bd
00000210: 6702 d53c 80a6 d33b 44c0 043e 9082 efbd
00000220: 9ee7 05be 288d 023e 7fe6 3b3d 3047 673d
00000230: 6187 7fbc e098 193e c3f7 4ebd 28e3 da3d
00000240: 0a87 d4bc b9c7 ebbd 4ff6 f03d 8dfd dc3d
00000250: c949 083e 1297 c33d f422 05be 63aa 49bd
00000260: e49b 4ebd 5dd0 a83d 9167 aebc f21e 5a3d
00000270: 4e9e 0e3e 3dc8 a2bb ef51 16bd 07d8 20be
00000280: e0ef 833d 96d8 da3c 99d7 b13c 522b 06bd
00000290: d05f 8fbd af34 5ebc 1780 1f3e 19b2 1c3d
000002a0: 677f 523d 7489 60be 5b06 05bc 4955 3c3e
000002b0: 0040 0e3e d5f2 0e3e 6986 093e d249 b13d
000002c0: 06e2 d1bd 829e 663d 03f0 b2bc 8021 e2bd
000002d0: 0b92 173e c70a 423e 43eb cebd 9818 3cbd
000002e0: e196 abbd f4d4 c5bc b64d c33d 47cf a4bd
000002f0: 761f 253d 9e6a 08be 3cca 10be 446c ecbd
00000300: 5058 87bd 3eb1 7cbd 3388 6c3e ec7e 883e
00000310: d74a b33d 96fb 02be a0a0 34bd 85f9 b9bc
00000320: 5988 c3bc 9884 833d 4299 ca3d 96de 803c
00000330: bab5 343d 001d a03c 0402 d03d 0a4f 35bd
00000340: f68a cc3d 525c 313e d5d5 1abd a1ce c83e
00000350: 39db 5cbd 112a 5d3d fa1a 073e c19d 0b3e
00000360: f347 1fbd 807e 8a3c 852c 283c 7b38 ae3e
00000370: bba6 c83d e713 a23c 6270 073e 7d78 eebb
00000380: 7e59 e43d b125 2a3e 343c 6c3d 0e48 57bd
00000390: 88e8 aa3d 5fd1 15be a110 84bd 01db 6fbb
000003a0: 9ce9 79bc 5930 eebc 7271 193d d755 d3bd
000003b0: 90ce b4bd a168 b63e 128b 673d 33a9 333b
000003c0: c9ff bebd 7305 643d fa7c ac3d f8f6 1dbd
000003d0: 4266 623e f056 2c3d ab38 cb3d 3e23 463d
000003e0: a11e 163e 9886 ac3e 0a89 863d 7c0b 073e
000003f0: 8f1b a43e f636 cb3d fd5e 393e c469 dc3d
0.049420707 -0.09638207 -0.027722826 0.21064737 0.1005618 0.022572173 0.09245644 0.041652054
0.0250972 0.15747252 0.068804316 -0.0014033928 0.0775939 0.18244451 0.093111284 0.048189387
0.05108188 0.016149344 -0.03024383 0.413349 0.019374872 0.1443983 0.051107112 0.18767032
-0.056480452 0.116719425 -0.015823374 -0.078136 0.15332691 0.1880438 0.13752076 -0.0041775694
-0.080072954 0.0057610804 0.066659026 -0.10765682 -0.07404394 -0.11334037 0.143299 0.14167692
0.13501468 -0.036763623 0.031910047 0.22933818 -0.0019005117 0.35763472 -0.010380017 0.001474554
-0.0136249205 0.024160363 0.15505503 0.09855205 0.22914785 -0.01895003 0.10529583 0.12460986
0.14866403 -0.05852095 0.17843552 -0.092506014 0.2553528 -0.13965514 0.10998688 0.09222316
0.043208357 0.09595013 0.09137804 -0.111971505 -0.014927606 0.09169492 -0.008017036 0.19402874
-0.14201646 -0.09460337 0.01789366 0.13171472 -0.19854277 -0.06733235 -0.114138186 -0.032793093
-0.121577896 0.00012063661 0.011003163 -0.042319003 -0.06034276 -0.108508535 0.12591526 -0.13398921
-0.1623332 0.1642497 -0.092711695 -0.0012710638 -0.08115184 0.10453565 -0.09568458 0.19236957
0.1925765 -0.09669749 -0.00020890462 -0.06479799 0.07841225 -0.13326442 0.0020042988 0.06440358
-0.08429283 0.16205236 0.10768925 0.15147659 -0.040439136 -0.040616438 0.06773346 -0.035827417
0.027617836 -0.08439203 -0.047799468 -0.08909347 0.03651938 0.16292703 -0.17572407 0.119526476
0.050093267 -0.039906804 -0.1146574 -0.03105778 -0.06880102 -0.1238762 -0.13418895 -0.12310464
-0.10602532 0.18454742 -0.07813531 -0.040951006 0.026002122 0.0064590573 0.12963969 -0.11694825
-0.13076636 0.1274916 0.045874115 0.056464374 -0.015596242 0.14999723 -0.050529253 0.10687858
-0.025943298 -0.115127034 0.1176573 0.107905485 0.13309397 0.09550299 -0.13001615 -0.04923476
-0.050441638 0.08242867 -0.021289619 0.053252168 0.13927576 -0.004967718 -0.03669923 -0.15707408
0.06442237 0.026714604 0.02170925 -0.032756157 -0.07000697 -0.013562365 0.15576206 0.038255785
0.05139103 -0.21927434 -0.008119191 0.18391909 0.13891602 0.1395982 0.1343018 0.08656658
-0.10248189 0.05630351 -0.021842962 -0.11041546 0.14801805 0.18949424 -0.10103466 -0.045921892
-0.08378387 -0.024149396 0.095363066 -0.080473475 0.040313207 -0.13321921 -0.14139646 -0.115440875
-0.06608641 -0.06169247 0.23098831 0.26659334 0.08754509 -0.12791285 -0.044098496 -0.022701988
-0.023868727 0.064217746 0.09892513 0.015731137 0.04411862 0.019545078 0.101566344 -0.04426483
0.09987442 0.17320374 -0.037801582 0.39220145 -0.053920005 0.053995196 0.13193884 0.13634397
-0.038886975 0.016906023 0.0102645205 0.34027466 0.09797426 0.01978488 0.13226464 -0.007277547
0.11149882 0.1661594 0.0576746 -0.05255895 0.08345133 -0.1463065 -0.06448484 -0.0036599042
-0.015253451 -0.029075788 0.037461706 -0.10319107 -0.08828461 0.356267 0.056529112 0.0027414083
-0.09326131 0.05566926 0.08422275 -0.038565606 0.22109321 0.042075098 0.09922918 0.048373453
0.14660122 0.33696437 0.06569107 0.13187975 0.32052276 0.09922592 0.18102641 0.10762361

lstm.bias_hh_l0 f4 [256]
00000000: 7a51 013c e8d4 cbbd 936c 023d 3937 3a3e
00000010: d687 5d3d 2d6e a63d 2065 83bd 1d39 3d3e
00000020: 5557 f53d 00c5 25bd 9100 233e d699 26bd
00000030: e07c b6bc 3d90 3b3e 2fb4 bdbc 0291 103e
00000040: ed1d 48bb a370 073c dc3a 0ebc 9f79 ed3e
00000050: a50d 86bc 0d59 373d 0841 0f3e 7458 b93d
00000060: e478 f03d b9cb 213e 2911 1fbd 8acd e3bd
00000070: a667 613e 0e25 e93d fd99 eb3b 00b1 023b
00000080: 5e22 24be 3557 353e 5c30 063e 1c18 793d
00000090: 9d1e 93bd 088e bdbc 935a b83d 1b5d 173e
000000a0: 6205 2abd ff2a 203e b725 243e ec82 7b3e
000000b0: 5acf 023e b3eb 4b3e a26b 5b3d 62b5 3d3e
000000c0: d92c 3fbe 15c8 a33d 54b5 75bb e5ad cbbc
000000d0: ece6 e03d 7394 9cbb 6977 fb3d 05f7 f83d
000000e0: 0c9e 643d 10b9 743c b044 883d 0ca5 673d
000000f0: 3a0f a63d 1dfb 263d 3e5d 3b3c 5f00 d3bc
00000100: 2a3e fcbd 427a 56bd 9e27 613d 5f0e 03be
00000110: 24e8 ecbc f9d5 8fbd 915c d0bd 5172 db3d
00000120: f57e 193d 3946 00be 8518 193e f24a 5b3b
00000130: 2d6f 48bd 5df7 57bd 1b64 b93d 46de 5dbd
00000140: 878a 64bd 877b fdbd 04f8 dbbb 7ae2 60bd
00000150: 7d79 28bd c82a 723d 320c 2bbd 2351 ed3c
00000160: 8e60 a13b c375 0bbc 6308 0bbe 851e 77bd
00000170: d602 88bd 865c 6c3d bd82 723d dc0e 283e
00000180: 3cff 6d3e 3f4d b7bd 6ae5 89ba ff43 babd
00000190: 855e 433e 011c 59bd f683 193e aa5b 67bc
000001a0: fccf 92bc 0f57 493d 08e4 bdbd 6992 323e
000001b0: 8482 333e de9a aabd d8a3 af3d c0a1 253c
000001c0: 4ec8 4c3e e7a9 2abe fb9f 71bc 9aba 3abe
000001d0: afb5 08bd 75bf 2f3e 2861 31be afc7 d03c
000001e0: 77c7 8abd 52d6 ab37 7cd4 0ebc c5d7 5bbe
000001f0: 0d8e 74be 2c86 4fbd 39c6 1fbe be73 2fbd
00000200: 3ee9 34be 8f39 a33d afcc 82bc d1aa bcbd
00000210: 4dca 7d3d 6463 c2bd 6a9e 443d 6d98 28be
00000220: 5c87 02be 42e8 583d d5df 013e 60f2 99bd
00000230: 2cdd 2fbe 9464 ae3d f8dd 003c be9d 0d3d
00000240: c73a 7b3d ad1b 4f3d 06ac 923d 8fa8 123d
00000250: 1801 07bd d22a 2dbc d7aa f0bd 18d4 f43d
00000260: e576 3b3d 365f e73d 5aa7 c0bc eaf8 ca3c
00000270: 2e22 073e 97d0 663d 4dce 203d 9a2f fbbd
00000280: d2d4 d3bd 28e3 8abd 617f 133e 7889 c03d
00000290: c6a1 d1bd 9e0d 29bd b832 96bb 2a49 a13d
000002a0: ae67 973c e1aa 01bd 2498 c6bd 4a7d 0cbd
000002b0: 78f8 4f3d 1dff abbd b212 d7bd 6d13 163e
000002c0: c260 033d 3d32 00be 1f73 50bc 1755 21be
000002d0: 46c3 083d f72a 343e 8c1b d6bd d392 bb3d
000002e0: e9bc 5fbd 0d08 13be 4021 343d 042f f5bc
000002f0: ca95 1bbd 419d 213c 88e9 b039 df74 91bc
00000300: cd03 353e 16b2 9abd fddc 4d3e e8f4 943e
00000310: 4167 0e3e 979e bbbd 6324 febc 4eeb b13d
00000320: 0f29 783d 93bd a6bd 9401 383e 744c 653d
00000330: b941 e93d e176 f13d 57a0 8ebd f13c 6abd
00000340: 9418 923c a783 ed3c 8abe 0bbe 7b15 fa3e
00000350: c0de f93d 23ac 68bc 79eb 583d c8bd 3d3e
00000360: ecb1 173d bb3b 93bd 57c4 a33b 9b58 4a3e
00000370: d0ae 853d d7e2 e03c efca d0bd c997 12bd
00000380: 4216 34bd 4a0b d63b 19c4 88bc c78c 303e
00000390: acbb a43d f0a7 d6bd b3f0 81bd 0b35 c13d
000003a0: 9eb3 773d 110d 05bd 8a2d 00bd 0204 e2bd
000003b0: a468 fd3d a63c 943e 0c72 493e 82d9 fb3d
000003c0: c570 58bd 1d33 263e ebe4 603b 7d5a c93d
000003d0: 9471 553d fd92 84bd e49e 8fbd 2609 2f3d
000003e0: 5947 023e dc9e 893e 0bac 363d 0ce2 353d
000003f0: ff97 213e 815c 853c 833c 593d 1630 c1bd
0.007892961 -0.09952718 0.031841826 0.18185128 0.05408462 0.08126483 -0.064157724 0.18478818
0.11979548 -0.040471077 0.15918185 -0.040674053 -0.022276342 0.18316741 -0.023157207 0.14117816
-0.0030535415 0.008266601 -0.008681025 0.46381852 -0.016363928 0.04476266 0.13989651 0.09050074
0.11741808 0.1580037 -0.038834725 -0.11123188 0.22012195 0.11384021 0.0071899877 0.0019941926
-0.16028735 0.17709048 0.13104385 0.060814008 -0.071835734 -0.023139015 0.09001651 0.1478161
-0.04150904 0.15641402 0.16030012 0.24561661 0.12774411 0.19914131 0.053569444 0.18526223
-0.18669452 0.07997147 -0.0037492113 -0.024863193 0.10981545 -0.0047784387 0.12278635 0.1215649
0.055814788 0.0149367 0.06653726 0.056553885 0.08108373 0.040766824 0.011435805 -0.025757013
-0.12316544 -0.052362688 0.054969423 -0.12798451 -0.028919287 -0.07023234 -0.10173906 0.107151635
0.03747459 -0.12526788 0.1495076 0.003346142 -0.04893415 -0.05272614 0.09052297 -0.054167055
-0.055796172 -0.123770766 -0.0067129154 -0.054903485 -0.041131485 0.05912283 -0.041759677 0.028969353
0.0049248403 -0.008511963 -0.13577418 -0.06033184 -0.06641166 0.057705425 0.059206713 0.16411918
0.23241895 -0.089502804 -0.0010520641 -0.090950005 0.19079025 -0.053005222 0.14991745 -0.0141209755
-0.01792144 0.04915529 -0.09272009 0.17438664 0.17530257 -0.0833032 0.085761726 0.010109365
0.19998285 -0.16666375 -0.014747615 -0.18235245 -0.033376392 0.17162879 -0.17322218 0.025485842
-0.06776326 2.048459e-05 -0.008717652 -0.21469028 -0.23882313 -0.050665066 -0.1560296 -0.04283499
-0.176671 0.07969963 -0.015966741 -0.09212268 0.061960507 -0.094916135 0.048002638 -0.16464396
-0.12746948 0.052955873 0.12683041 -0.075169325 -0.17174214 0.085152775 0.0078654215 0.034574263
0.06133535 0.050563503 0.07161717 0.03580528 -0.032960027 -0.010569291 -0.11751335 0.11954516
0.045767684 0.11297457 -0.0235173 0.024776895 0.13196632 0.05635127 0.039259244 -0.12264939
-0.10343327 -0.06781608 0.1440406 0.0940122 -0.10235934 -0.041272752 -0.004583683 0.07875283
0.018482056 -0.031657103 -0.09696987 -0.034299172 0.050774068 -0.08398268 -0.10501613 0.14655848
0.032074697 -0.12519164 -0.0127227595 -0.15755115 0.033389352 0.17594515 -0.10454473 0.09158864
-0.05462352 -0.1435854 0.043977022 -0.029929645 -0.037984647 0.009864152 0.0003374333 -0.017755924
0.17677231 -0.075534984 0.20103832 0.290931 0.13906576 -0.09161108 -0.03102321 0.08687459
0.06058603 -0.08141627 0.17969352 0.055981115 0.11389489 0.117902525 -0.06964176 -0.057187025
0.017833985 0.02899344 -0.13646904 0.48844513 0.12200689 -0.014201197 0.05295894 0.18529427
0.037034914 -0.07189127 0.004997771 0.19760363 0.065274835 0.027451916 -0.101949565 -0.035789285
-0.04396654 0.0065321075 -0.01669507 0.17241202 0.08043608 -0.1048125 -0.06344738 0.09433945
0.06047403 -0.032483164 -0.03129343 -0.11035921 0.12373474 0.2895252 0.19672412 0.12297346
-0.05284192 0.16230436 0.0034316133 0.098317124 0.05211027 -0.06473348 -0.07012728 0.042733334
0.1272253 0.26879013 0.044597667 0.04440503 0.15780638 0.01627946 0.053036224 -0.09433

fc1.weight f4 [64, 64]
00000000: 0bcb 133c b39f c33d d8ee 36bd 702d 823c
00000010: 6212 ecbd 368e 413c 5c76 1dbe c876 efbd
00000020: 029c 1c3c 6aec 193b 0c65 9f3d b42c 0e3e
00000030: ef6c 47be 0803 37be 99e2 6dbd 0f59 3cbe
00000040: cd3a cebc 342f 073e 30b5 933c 1c33 f33d
00000050: 5e87 653c fedd a23d 61f0 003d 9fde acbe
00000060: ff0c 16be ee08 143e 10c0 c9bd ece7 c4bc
00000070: 2d19 ccbd fd29 4fbd 5acc 8b3d 62ff 40be
00000080: 0900 883d f966 c7bd e5bb e0bd 9b75 4db6
00000090: c99e 843c 77e7 fd3d 1bad 1fbc 36ff 21be
000000a0: 5928 0abe 6156 eb3d b680 223e ac52 06bd
000000b0: 72a5 97bc 6cdf a9bd 68b5 063a 30a3 703d
000000c0: eb60 1abc 00e7 cd3d 5525 14bd b2d7 eb3d
000000d0: 3568 83bd 762f 293e 7ec1 723e f965 4ebd
000000e0: ff55 d9bd 170e 3ebd 983a 1d3b e7d7 373e
000000f0: 2b6c 24be 6d48 483e b8df 0e3e 7ef6 04be
00000100: 3c38 a1bd ca68 463d 090e c03d 696e ffbd
00000110: a7de 21be 6b49 0ebd 4952 75bd 1709 8fbd
00000120: 4e5a 633e e1c4 90bd 6edd 0d3d 8940 233e
00000130: f969 f53d 2988 97bd 984c 5f3d f0c6 fcbd
00000140: 3e1a b43c 07fd 943d 5a29 dc3c 4572 aa3d
00000150: 1bb4 113c b576 183e 36bc 773d 4b13 13be
00000160: ce30 f4bc d9d0 393e 9e3b a23d b19a 04be
00000170: b77b c1bd e0cc 7e3b e809 5f3e c17f 6abe
00000180: 6929 9d3d 9e34 c83d 7ead c938 b0c5 063e
00000190: 7430 d2bd d3b2 cbbc 0cbc cb3d d782 383d
000001a0: c6d7 43be 40e6 423d e47b 353e 3bcd 153d
000001b0: 22cf a4bd 733e 8d3d 9542 19be 4809 183e
000001c0: f87f 0f3e cc45 d33d 6de0 d9bd fb57 9e3e
000001d0: a1b1 bfbd f9c8 1c3e f048 533e 6782 2f3d
000001e0: dd4f d4bd 6f9b 36bd 4fb6 463d fcce a73b
000001f0: 1815 7f3d 3ff2 673d bcab 963d b423 2e3d
00000200: 993b 1dbe 2d10 70bd 56ae 9d39 4626 46bd
00000210: acdf 443e 7c74 09be af9e 93bd 1d43 4fbd
00000220: 45f1 28be 31d5 983e a313 fb3d 2c26 ecbd
00000230: e329 083e fb7e 3cbd 9a34 7b3d 046d d13d
00000240: 0446 103e 509a 9dbe 8974 01bd f3b5 c9bd
00000250: 874d 2abe 2ddb cb3c 1107 d2bd 55e5 093e
00000260: 9cbb c73d aec2 6cbd 5ce7 213d e710 053d
00000270: cee4 5c3e d11a 8bbd a740 92be 1a19 003d
00000280: f9ea 263c 093a f2bd a7de 073d 8f30 1fbe
00000290: 5bf8 d93c e349 61bd 5ed9 4d3e 4803 2f3e
000002a0: 3085 323e e6df c6bd 56ae 34be c7d2 d63d
000002b0: 9bc8 cfbd 74d6 e93c a0b8 733d 8b4f 2cbe
000002c0: 5ded 38bd 9327 33bd 9a89 c53d 4763 07be
000002d0: b8a6 5dbd 2404 88bd aa8b 66be 83c9 243e
000002e0: 5401 0c3d 56a8 79bc 1cb4 17bd 3709 443c
000002f0: 0b51 07bd a617 12be 731a 0a3d 6733 ff3d
00000300: b8e5 a2bd 67de a63a 590f b4bc 2ea0 ce3c
00000310: 32ca 1d3e 1c83 18be e65f fe3c 00ce 5bbe
00000320: cf46 2ebe f2df 453e 5a9d 583e 49a7 813b
00000330: 36d4 363d b17c 933d 595a 97bd a580 8b3e
00000340: dd60 de3d 5787 d1bd 718e 1e3d 6c69 92bd
00000350: 3d87 d8bd 4f4f a73d eea8 a6bd e2a2 703e
00000360: 97e3 8a3d 7e2a 003e ab31 bbbd e47f e23c
00000370: 2e4b 823e 6313 ed3d 3cf4 83be 83e0 a43d
00000380: 6064 003e 533a 203d f20f 01bd 2e21 43be
00000390: 5191 7e3d 21f6 29be a79d a03a 124d d73d
000003a0: 3373 133e 045b a1bd 0e15 ccbc 033d 0c3e
000003b0: 5cbc 063d ae50 223d 6e36 ca3d 1926 c0bd
000003c0: 26c2 fbbc 28c0 12be 4d57 863e e4ca 2ebe
000003d0: 0e1c fa3b 9ec6 df3d d467 61be ce78 0a3e
000003e0: 63eb 4ebc 5335 0c3e 52d4 0ebe 57e8 02bd
000003f0: 3bfc f23d 1ba6 13be a857 843d 4fd5 273d
0.009020577 0.095519446 -0.044661373 0.015890807 -0.11526944 0.011813691 -0.15377182 -0.116925776
0.00955868 0.002348686 0.07782945 0.1388424 -0.19475149 -0.1787225 -0.05807743 -0.18393348
-0.025174523 0.132016 0.018030733 0.11874983 0.014009325 0.07952498 0.031479243 -0.33763596
-0.14653395 0.14456531 -0.09851086 -0.02403637 -0.099657394 -0.050577153 0.06826086 -0.18847421
0.06640632 -0.09736437 -0.10973338 -3.0615836e-06 0.016188996 0.12397664 -0.009745861 -0.15820011
-0.13491954 0.11491085 0.15869412 -0.032793686 -0.018511508 -0.082945675 0.0005138726 0.058749378
-0.009422521 0.100538254 -0.036168415 0.1151575 -0.0641636 0.16522011 0.23706624 -0.050390217
-0.106121056 -0.046400156 0.0023991223 0.17953454 -0.16056888 0.19558878 0.1395253 -0.12984654
-0.07872054 0.04843978 0.09377677 -0.12472231 -0.15807591 -0.034737986 -0.059892926 -0.069841556
0.22202417 -0.07068802 0.034635 0.15942587 0.11983103 -0.07399017 0.054516405 -0.12342632
0.02198517 0.07274824 0.026875187 0.083225764 0.008893038 0.14889033 0.060482226 -0.14362828
-0.029808428 0.18146075 0.07921527 -0.12949635 -0.09447425 0.003887944 0.21781123 -0.22900297
0.07673914 0.09775661 9.616742e-05 0.1316135 -0.10263148 -0.024865543 0.099479765 0.045046654
-0.1912528 0.047582865 0.17723042 0.036572676 -0.0804732 0.06896677 -0.14966805 0.1484729
0.1401366 0.10316047 -0.10638509 0.309265 -0.09360052 0.1531104 0.20633292 0.04284897
-0.10366795 -0.044581827 0.048513707 0.00512111 0.062275976 0.05662751 0.073569745 0.042514518
-0.15354766 -0.058609176 0.00030075264 -0.048376344 0.19225949 -0.13423342 -0.07208001 -0.050601114
-0.16498287 0.29850152 0.12259605 -0.11530718 0.13297229 -0.046019536 0.06132946 0.10225871
0.14089209 -0.30781794 -0.031605277 -0.09849157 -0.16631137 0.024884785 -0.10255254 0.1346639
0.097525805 -0.05780285 0.039527282 0.032486822 0.21571657 -0.06792224 -0.2856495 0.03127394
0.010187858 -0.118274756 0.033171322 -0.15545867 0.026607683 -0.055002104 0.2010245 0.17091095
0.1743362 -0.09710674 -0.17644629 0.10489421 -0.10145684 0.028544642 0.059502244 -0.16827218
-0.045148242 -0.043738913 0.09645386 -0.13221465 -0.054114074 -0.06641415 -0.22514215 0.16092496
0.034180954 -0.015237888 -0.037037 0.011965088 -0.033036273 -0.14266834 0.03371663 0.12460976
-0.079539716 0.0012731076 -0.021979975 0.025222864 0.15409163 -0.14893764 0.031051587 -0.21465302
-0.17019199 0.1932371 0.21153775 0.0039567095 0.044635974 0.072015174 -0.07390279 0.27246585
0.10858319 -0.10230892 0.03871006 -0.07149014 -0.1057267 0.08169424 -0.081376895 0.23499635
0.067816906 0.1251621 -0.09140333 0.027648874 0.25447983 0.11575963 -0.25772274 0.08050635
0.1253829 0.039118122 -0.031509347 -0.19055626 0.062150303 -0.16597797 0.0012254015 0.10512747
0.14399414 -0.07878688 -0.024912383 0.13695149 0.032894477 0.039627723 0.09873663 -0.093822666
-0.030732226 -0.14331114 0.2623848 -0.17069584 0.007632739 0.10926555 -0.22012264 0.13522646
-0.012629363 0.13692217 -0.13948181 -0.031959858 0.118645154 -0.14418833 0.064620316 0.04097491

fc1.bias f4 [64]
00000000: 88ac 4cbc 391b 7d3a e879 b43d 8bda 023e
00000010: 3847 31bd 038e 66bd cfa0 0b3e 34ae 14bd
00000020: be9b 203e 9e88 123e 61b6 bf3d 871b 13bd
00000030: 9541 113e f493 303e 124f 833d 9d52 ff3c
00000040: fc8f 243e 4d53 153e ca69 c73c 65a5 f83d
00000050: a670 4f3c 206f 453d 9f65 1b3c 176b 083e
00000060: 9270 3e3e b2d4 0c3e 5d94 59bc 2f0d 9cbd
00000070: f5c5 463c 22ee 2c3e 2e67 243d 2f90 153d
00000080: 6282 f53d c6f8 6c3d eaa8 ecbb 102a bf3d
00000090: 9d82 673d 7303 3dbd 9362 013e 4720 413e
000000a0: 7b86 363d 27ee f83d 49f4 a73c 3b5d 273e
000000b0: 525d 4f3e bbbf ca3d 7791 b33d 002a 2e3e
000000c0: c817 eebc 5306 153e 8e35 a73d 20c7 e73b
000000d0: 6526 dcbc c8c2 103e f1b5 1c3c ed88 483e
000000e0: db65 81ba bec2 173e c03a 873d 2992 213e
000000f0: a62e 553d 5c7b dd3a 6f35 21bd c56c 273e
-0.0124923065 0.00096552406 0.08812314 0.1277868 -0.04328081 -0.056287777 0.13635562 -0.036298946
0.15684411 0.14309928 0.09360958 -0.035914924 0.14185174 0.1724394 0.06411566 0.031167323
0.1607055 0.14582558 0.024342436 0.121409215 0.012661135 0.04820168 0.009484678 0.13322102
0.1859763 0.13753012 -0.0132800015 -0.07619702 0.012132158 0.16887715 0.040137462 0.036514457
0.11987759 0.057854436 -0.0072222846 0.09334195 0.056521047 -0.046145868 0.1263526 0.18859969
0.044561844 0.12154799 0.020502226 0.16344158 0.20250443 0.09899851 0.087679796 0.17008209
-0.029064074 0.14553194 0.081645116 0.007073298 -0.026873777 0.14136803 0.009564863 0.19583483
-0.0009872274 0.14820382 0.066030025 0.15778412 0.05204644 0.0016897726 -0.0393576 0.16350086

fc2.weight f4 [1, 64]
00000000: f843 02be 1b5a 39be 0aac 7f3e e398 1e3e
00000010: 690a 9e3e fd6b 473e 93b2 ec3d d10a 693e
00000020: 1ced 6fbe 1b1d 09be 1b91 25be 6d71 14be
00000030: e2eb 44be 1d12 883e 3512 3bbe c4ff f33d
00000040: d951 4abe 486f 2fbe b760 e53d 6793 4b3e
00000050: c117 31be 37c2 4dbe 7c98 eb3d d69b 88be
00000060: d1a7 87be d445 83be f3dd 193e 1f35 573e
00000070: 7931 1ebe 589a 35be c093 193e 8068 4bbe
00000080: 4c9b 6c3e 3eab 063e 599c 3f3e 6200 113e
00000090: 0862 533e 7002 523e 5772 abbe c615 61be
000000a0: 3cec 7abe 8466 04be 8251 403e 2745 483e
000000b0: 0907 813e 26ce 20be 3896 443e 4db6 42be
000000c0: 85ce 89be d156 d83d a759 27be e529 4cbe
000000d0: 085f 65be 2e82 2abe 9a67 ddbd fd9d 4bbe
000000e0: c394 613e 27e7 713e 51e2 30be 2539 35be
000000f0: 3e13 023e 44ae 7fbe ada1 693e 0407 333e
-0.1272124 -0.18100779 0.24967971 0.15488009 0.30867317 0.19474788 0.11557498 0.22758032
-0.23430294 -0.13390009 -0.16168635 -0.14496394 -0.19230607 0.2657632 -0.18268664 0.11914018
-0.19757785 -0.17132294 0.112000875 0.19880448 -0.17294218 -0.20093618 0.115036935 -0.26681393
-0.2649522 -0.25639212 0.15026073 0.21016358 -0.1544856 -0.17734659 0.14997768 -0.19864082
0.23106116 0.13151261 0.18711986 0.14160302 0.20642865 0.20508742 -0.33485672 -0.21980962
-0.24504179 -0.12929732 0.18781093 0.1955763 0.2520068 -0.1570364 0.19197929 -0.19014855
-0.26915374 0.10563434 -0.16342793 -0.19937856 -0.22399533 -0.16651222 -0.10810776 -0.19884486
0.22029404 0.23623334 -0.17273833 -0.1769758 0.12702653 -0.24968821 0.2281558 0.17483145
